pytorch_projects/model/logistic_regression_model.ckpt (torch_old, 31920 bytes, 2 tensors)

weight f4 [10, 784]
0	0x3d0fbd07	0.03509238
1	0x3b8f3400	0.0043702126
2	0x3c098bd0	0.00839515
3	0x3bd28040	0.00642398
4	0xbc13d21c	-0.009022262
5	0x3c931f5c	0.01795929
6	0xbaa59840	-0.0012633875
7	0xbd04a7a0	-0.032386422
8	0x3cbe335c	0.02321785
9	0x3c07bb08	0.008284338
10	0x3bd7cc90	0.006585665
11	0x3bc8e1f8	0.006130453
12	0xbce811a4	-0.028328724
13	0xbb185c48	-0.0023248363
14	0x3cf0a33a	0.029374707
15	0xbc1aafb2	-0.009441303
16	0x3cabd0de	0.02097362
17	0x3d11d0b7	0.035599437
18	0x3c8deacc	0.017323874
19	0xba14a1c0	-0.00056698546
20	0x3c638f98	0.013889216
21	0x3d12362b	0.03569619
22	0xbcbc015a	-0.022949863
23	0x3ba18cb8	0.004930105
24	0xbc3ede6e	-0.011649711
25	0xbabe4500	-0.0014516413
26	0xbcbeae4a	-0.023276467
27	0x3b113060	0.0022154078
28	0x3c0c7018	0.008571647
29	0x3b911b78	0.0044283234
30	0xbca0182a	-0.019542772
31	0xbc8038ca	-0.01565208
32	0xbcb3a6c1	-0.0219301
33	0xbcec1546	-0.028818738
34	0xbc781b63	-0.015143248
35	0x3ca5f8cb	0.020260235
36	0xbc92de80	-0.017928362
37	0xba935310	-0.0011239965
38	0x3c7103f8	0.014710419
39	0xbc947e03	-0.018126493
40	0x3babccfa	0.005242941
41	0x3bd96e50	0.0066354647
42	0xbcc17a8e	-0.023618009
43	0xbcff8c21	-0.031194748
44	0x3c1678b8	0.009184055
45	0xbcd435b5	-0.025904516
46	0x3c323831	0.010877655
47	0xbd10e28c	-0.035372302
48	0xbc9d4e1d	-0.019202286
49	0x3ccf1248	0.025277272
50	0x3ce5f331	0.028070064
51	0xbb57a0b8	-0.0032902192
52	0x3c03e728	0.008050717
53	0x3c253000	0.010082245
54	0xbcc9431e	-0.024568137
55	0xbcd40a70	-0.025883883
56	0x3ca19118	0.019722506
57	0xbcde20f8	-0.02711533
58	0x3c6e6db8	0.014552526
59	0x3ac6884b	0.001514682
60	0x391ee32b	0.00015152681
61	0x3cf0d206	0.029397022
62	0x3cac9273	0.021065926
63	0xbb9440be	-0.0045243194
64	0x3d0c6b50	0.03428203
65	0x3b0f45fe	0.0021861787
66	0xbb1aa543	-0.0023597039
67	0xbc5f1078	-0.013614766
68	0x3d094d0a	0.033520736
69	0xbc02fb04	-0.007994417
70	0x3cb82f51	0.0224835
71	0xbcd372fe	-0.025811668
72	0xbd05c6e4	-0.03266038
73	0xbced2e4a	-0.028952736
74	0xbbec2710	-0.007206805
75	0xbd189f8e	-0.03726154
76	0xbbfc3e35	-0.0076978453
77	0x3bebe9b4	0.0071994904
78	0xbcd6e36a	-0.026231486
79	0xbcd9ec28	-0.026601866
80	0x3cb10bd6	0.02161209
81	0xbcbed323	-0.023294037
82	0xbc4e1938	-0.012579255
83	0x3cfff332	0.031243894
84	0x3a86fd40	0.0010298863
85	0x3c5c6328	0.013451375
86	0x3d0a3b1b	0.033747774
87	0x3ce43369	0.027856546
88	0x3c994af5	0.0187125
89	0x3acb7d0a	0.0015524935
90	0xbc852daa	-0.016257126
91	0x3cc5b6e8	0.024135068
92	0xbcc10be9	-0.02356525
93	0xbbfbb389	-0.0076813144
94	0x3cbb3b13	0.022855317
95	0xbb99e359	-0.0046962914
96	0xbd0959d5	-0.033532936
97	0x3cb5afbb	0.022178521
98	0xbc500c12	-0.01269819
99	0x3c3c50dd	0.011493889
100	0x3b119936	0.0022216565
101	0x3b876d9d	0.00413294
102	0x3a0a564b	0.0005277141
103	0x3ce38831	0.027774902
104	0xbce82cb5	-0.02834163
105	0xbc9089b0	-0.01764378
106	0xbca00028	-0.019531325
107	0x3c4cc3aa	0.012497822
108	0xbce493ea	-0.027902562
109	0xbcc04a2a	-0.023472864
110	0xbc9f06b8	-0.019412383
111	0x3cdef7e2	0.02721781
112	0xbc6acddc	-0.014331307
113	0x3cac128e	0.021004941
114	0xbc21e88a	-0.009882102
115	0x3ce20d44	0.027594216
116	0x3cfd9d4e	0.030958798
117	0xbcafc9c8	-0.021458521
118	0xbcce4a67	-0.025181962
119	0xbca6eb65	-0.020375917
120	0x3b175b48	0.002309518
121	0xbc7b532a	-0.015339652
122	0xbd22f040	-0.0397799
123	0xbba2bb56	-0.00496618
124	0x3cca6d4d	0.024710322
125	0x3cfd039f	0.030885516
126	0x3caa6ce7	0.020803882
127	0xbc819c21	-0.015821518
128	0xbcc1aeea	-0.023642976
129	0x3d19a534	0.037511066
130	0x3cee8d56	0.029120129
131	0xbcb10654	-0.021609463
132	0xbc946e78	-0.018119082
133	0x3ce470c5	0.027885804
134	0x3c9a96d7	0.018870754
135	0xbbe10be4	-0.0068678726
136	0xbb808793	-0.0039224117
137	0x3c9f9efe	0.019484993
138	0xbcdb9397	-0.026803775
139	0xbcffb11f	-0.031212388
140	0x3d10db97	0.035365667
141	0xbcf61931	-0.03004131
142	0xbc25d4b5	-0.010121514
143	0xbce346a1	-0.02774364
144	0xbd12fd90	-0.035886347
145	0xbbbea9d8	-0.005818587
146	0x3c8cd55c	0.017191581
147	0xbc455292	-0.012043612
148	0xbca6954b	-0.02033486
149	0xbcbedfa9	-0.023300009
150	0xbca6bad4	-0.020352758
151	0x3cd8a424	0.026445456
152	0x3c6c0e48	0.014407702
153	0x3acd4ace	0.0015662552
154	0xbc82baa2	-0.015958134
155	0x3c952815	0.01820759
156	0x3c038acf	0.0080287
157	0x3ce1b419	0.027551698
158	0x3ccfb4d9	0.02535479
159	0xbc90427b	-0.017609825
160	0x3cc6aa8e	0.024251249
161	0xbbf13421	-0.0073609506
162	0xbc47f340	-0.012203991
163	0xbbcaa232	-0.006183886
164	0x3b0afa2e	0.0021206248
165	0xbc752e43	-0.014964643
166	0xbc10c777	-0.008836619
167	0x3c42cff5	0.011890401
168	0x3c4cae08	0.012492664
169	0xbc9eb091	-0.019371303
170	0xbca0c82f	-0.019626705
171	0x3cffe5fb	0.031237593
172	0x3c344169	0.011001923
173	0x3c554edc	0.01301929
174	0x3cc6d5bf	0.024271844
175	0x3ab2a81e	0.0013630425
176	0x3c1273b9	0.008938723
177	0xbc6d3874	-0.0144787915
178	0xbca160ef	-0.019699542
179	0x3bbf0de8	0.005830515
180	0xbcb9a2fb	-0.022660723
181	0xbc6d4ed9	-0.014484131
182	0x3d135ace	0.03597527
183	0x3d50af39	0.050948355
184	0x3d70b28f	0.058764037
185	0x3b9118ad	0.0044279904
186	0xba3db619	-0.00072369125
187	0x3d7529f1	0.05985445
188	0x3d1a37b5	0.037650783
189	0xbcb2f834	-0.021846868
190	0x3cac8ce3	0.021063274
191	0x3c8c38d9	0.01711695
192	0xbd03c8d4	-0.032173946
193	0x3b0ac88c	0.0021176664
194	0x3c339cc8	0.0109626725
195	0x3c30f3de	0.01080033
196	0x3bd3c30b	0.00646246
197	0xbc54b63a	-0.012982899
198	0xba0bfff6	-0.00053405704
199	0x3cf3b466	0.029749107
200	0xbd05bf93	-0.032653403
201	0x3c974cc3	0.01846922
202	0x3bd1f4a3	0.006407337
203	0xbc565522	-0.013081821
204	0xbb9f47aa	-0.004860838
205	0x3c2e1804	0.010625843
206	0xbcbf1278	-0.023324236
207	0xbc0cbb8e	-0.008589638
208	0xbba5b6c5	-0.005057188
209	0xbc85486d	-0.016269887
210	0x3b0da57f	0.0021613536
211	0x3d141877	0.036156144
212	0x3cd90a1a	0.026494075
213	0x3d2f5e65	0.04281463
214	0x3d823c9d	0.06359217
215	0x3b289296	0.0025722138
216	0x3c917aad	0.017758692
217	0x3d0e3937	0.034722533
218	0x3cb00221	0.02148539
219	0xbd16ce7a	-0.036818005
220	0x3b346bbc	0.0027530035
221	0xbce7f2f9	-0.0283141
222	0x3ccc92f8	0.024972424
223	0xbd1059a7	-0.03524175
224	0x3ce6feeb	0.028197726
225	0xbc426bf3	-0.011866557
226	0x3c990002	0.018676762
227	0x3c43ac0a	0.011942873
228	0x3b52fac2	0.003219292
229	0x3c92926d	0.017892087
230	0xbcf011ba	-0.029305328
231	0xbcd78f84	-0.02631355
232	0xbc93fccb	-0.018064877
233	0x3c996229	0.018723564
234	0x3c9dd83e	0.019268151
235	0x3c9b5a40	0.018963933
236	0x3c355389	0.01106728
237	0x3c8b3702	0.016994003
238	0x3cc0ec3e	0.023550149
239	0x3cb2e975	0.021839837
240	0x3d0c8a43	0.034311544
241	0x3c5677ef	0.013090118
242	0x3d5a2a9c	0.05326329
243	0x3d3352ff	0.043780323
244	0x3d64ab81	0.05582762
245	0x3d6d7189	0.057969604
246	0x3d37d06a	0.044876494
247	0x3c9b7db3	0.018980836
248	0xbd0f8a52	-0.035044022
249	0x3ccf754a	0.025324482
250	0x3c92dd48	0.01792778
251	0xbcb753a5	-0.022378752
252	0x3d0c0f6e	0.034194402
253	0x3c5e548e	0.013569964
254	0x3c24f967	0.010069228
255	0x3c82affa	0.015953053

bias f4 [10]
0	0xbceb8aba	-0.028752673
1	0x3d4840ca	0.048889913
2	0x3c0624bf	0.008187472
3	0x3b8ade0e	0.0042378968
4	0x3cbb2a20	0.022847235
5	0x3d1573a0	0.03648722
6	0x3c81f8a3	0.01586563
7	0xbb61e9cb	-0.0034471627
8	0xbc7545ce	-0.014970256
9	0x3c98b162	0.01863927
